class_materials/svm_model.pkl_10.npy (npy, 440 bytes, 1 tensors)

array f8 [45]
-0.474090250054303 -0.4289917210870395 -0.26225880573828986 -0.41835826008583615 -0.41081377311446454 -0.1940328681587069 -0.4056394829073832 -0.4459525400854105
-0.4589815067193061 0.11418114851839559 0.3089545658240084 0.11988116319112237 0.17071868856013697 0.3680678793417877 0.036057136553407865 0.16463087744906493
0.08729311926372828 0.22656037423575698 0.019206984159625653 0.08886014964335102 0.290673387910655 -0.04749975354117398 0.016659111485046493 -0.04242801771920523
-0.171145369430868 -0.0902076743625561 0.0688262848611112 -0.22374264437242092 -0.25003121038370296 -0.3103500148381792 0.08346346631807249 0.3142926245987615
-0.04853947958265174 -0.02096703737535449 -0.05732705747324042 0.21689666627013707 -0.11624777618009964 -0.07209788750270757 -0.218357375832288 -0.2655059017597024
-0.34097204952543836 -0.2982228947154145 0.09581909214030312 -0.02214933100392422 -0.1346601626424526
00000000: 017c d5a1 7e57 debf abb5 14b1 9974 dbbf
00000010: 66f9 6e28 d9c8 d0bf d320 45b9 61c6 dabf
00000020: a878 11da c54a dabf e89c 8bab 11d6 c8bf
00000030: 8f6d 434e fff5 d9bf b409 cf85 7c8a dcbf
00000040: 9f01 35f8 f35f ddbf 5acb b4ca f93a bd3f
00000050: e67e 0a5f e9c5 d33f 85f3 4f2b 88b0 be3f
00000060: 2545 1728 1cda c53f 8fc9 1e94 6c8e d73f
00000070: d88e 91bc 1476 a23f 351b 47e5 9f12 c53f
00000080: 6f4e 6784 d758 b63f 9abf f42a eeff cc3f
00000090: 4712 48e3 feaa 933f a3c7 a2ec 89bf b63f
000000a0: c633 b98d 649a d23f b107 0e40 e351 a8bf
000000b0: bce6 080c 160f 913f 2f81 1309 20b9 a5bf
000000c0: 18a1 486a 17e8 c5bf eb42 3ca3 d917 b7bf
000000d0: 406a 9572 999e b13f e269 2656 99a3 ccbf
000000e0: 7bf2 e4e7 8200 d0bf 0fc2 024f c6dc d3bf
000000f0: 1336 3f9a dc5d b53f d6a4 01d0 5e1d d43f
00000100: 86a4 beaa 2ada a8bf 70dd 480f 6278 95bf
00000110: 9205 0cda f859 adbf e1ee 1e1c 45c3 cb3f
00000120: 191f ed0c 6ac2 bdbf 1c50 efd4 0175 b2bf
00000130: 9d20 056e 22f3 cbbf 7dfc 3c77 0cfe d0bf
00000140: 5af5 636e 7cd2 d5bf 6e27 ee7a 1516 d3bf
00000150: 0634 139b 9987 b83f b918 2971 50ae 96bf
00000160: bfca 4f51 8b3c c1bf
