class_materials/svm_model.pkl_03.npy (npy, 38528 bytes, 1 tensors)

array f8 [9, 534]
0.15344413814372926 0.15748024262532725 0.0 0.0 0.1780410103594824 0.28872857035325067 0.0 0.0645974065675486
0.023504711268817483 0.0 0.5216463237713315 0.2825639550948704 0.2901757099894428 0.3412668029830616 0.0 0.0
0.0 0.0 0.8681796626944516 0.0 0.0 0.06463715622321588 0.21856093161838686 0.6863602222714837
0.026459286722840782 0.09627280654113092 0.03102470813214219 0.042241470389199065 1.0 0.0 0.0 0.0
0.5930722977216716 0.0 0.0 0.10229024529647014 -0.30215159182507983 -0.0 -0.6828106997702902 -0.03866026698067094
-0.07701788869909927 -0.07934864332445564 -0.06348059769879744 -0.0 -0.0 -0.0 -0.19385550298923399 -0.02173702231340529
-0.09122129017854096 -0.23852534288632482 -0.22318243997955384 -0.16250951243204087 -0.0655955984903315 -0.0 -0.0880044868663785 -0.0
-0.0 -0.0 -0.35024145954177244 -0.0 -0.010279727804832058 -0.0 -0.6385491074647552 -0.0
-0.02654053124934712 -0.0 -0.0 -0.0 -0.0 -0.0 -0.09257112961539224 -0.3973109887509222
-0.0 -0.1599335826697351 -0.1007856533566767 -0.0 -0.0 -0.0 -0.04621825561464903 -0.2253898159232691
-0.010105035928549952 -0.36867720821979316 -0.09515633267453105 -0.6166955902471649 -0.0 -0.0 -0.0 -0.0
-0.42067170533047626 -0.007608428848008691 -0.0 -0.08297632955558408 -0.0 -0.05273589153819241 -0.0 -0.0
-0.14487330629892453 -1.0 -0.3241962672769397 -0.0 -0.06306042126313108 -0.0 -0.0 -0.0
-0.04542434665899947 -0.0 -0.0 -0.04445802365050843 -0.3372170703343419 -0.0 -0.0 -0.18240284412979751
-0.1643873366272246 -0.041979943730795485 -0.0 -0.3580320959953263 -0.0465503434446263 -0.0 -0.020829736398709053 -0.2841195844350889
-0.2731299392515796 -0.5895802455987047 -0.0 -0.32431413349027916 -0.0 -0.0 -0.0 -0.0
-0.0 -0.12087801272562931 -0.25813980921634644 -0.6183140003601578 -0.35400034464918856 -0.3309957914107784 -0.0 -0.3595146016567423
-0.0 -0.0 -0.0 -0.0 -0.0 -0.225449322399411 -0.0 -0.04473721065428026
-0.0 -0.010659672700442284 -0.460882657382435 -0.0 -0.0 -0.8058781022739875 -0.0 -0.16920008906368955
-0.0633057612855781 -0.0 -0.0 -0.20117161925061797 -0.011763733300826489 -0.0 -0.0 -0.0
-0.4905234294809822 -0.0 -0.1346965621159023 -0.0 -0.0 -0.0 -0.0 -0.07110363377026566
-0.09535879447114932 -0.0 -0.11335771429706894 -0.15482228121150035 -0.0 -0.6633961931815465 -0.4157660757922301 -0.0
-0.7276086734689033 -0.0 -0.0 -0.34300797899173585 -0.26330178819380234 -0.0 -0.0 -0.0
-0.0 -0.0 -0.0 -0.0 -0.0 -0.4974212290751455 -0.5344154533625566 -0.0
-0.0 -0.0 -0.3346315878248339 -0.722817395353037 -0.20127965534422093 -0.1442977302056185 -0.0 -0.0
-0.23851525658144865 -0.3063677058189736 -0.3436361069643029 -0.0 -0.0 -0.2470928836696307 -0.0 -0.16170346169268218
-0.0 -0.0 -0.008081222374526844 -0.0 -0.29663324599241675 -0.0 -0.0 -0.4177167816458289
-0.1415874467812509 -0.27607797737732825 -0.0 -0.09844819985024895 -0.14059319451508026 -0.0116018570416861 -0.0 -0.417988591144585
-0.0894780002494266 -0.0 -0.0 -0.05745132017172126 -0.10505356768061634 -0.022182370106317326 -0.0 -0.0
-0.015201508704358784 -0.0 -0.39597149896375583 -0.0 -0.08358556969452414 -0.17870606345799486 -0.0 -0.0
-0.0 -0.2860644631451839 -0.0 -0.0 -0.11414170817969253 -0.0 -0.0 -0.1572527517493266
-0.0 -0.43889106028455954 -0.21338180977757898 -0.0 -0.2936652289888718 -0.5202949714204493 -0.0 -0.1192694040157096
00000000: 708c 8bb9 0ea4 c33f 39c4 eb05 5028 c43f
00000010: 0000 0000 0000 0000 0000 0000 0000 0000
00000020: 7c9e 6b3e 0cca c63f 8fa2 c565 877a d23f
00000030: 0000 0000 0000 0000 8531 9da4 7489 b03f
00000040: 6154 ce78 9e11 983f 0000 0000 0000 0000
00000050: dba5 95a1 53b1 e03f e04b 8a20 8715 d23f
00000060: 1fe3 1f24 3d92 d23f 5374 81b7 50d7 d53f
00000070: 0000 0000 0000 0000 0000 0000 0000 0000
00000080: 0000 0000 0000 0000 0000 0000 0000 0000
00000090: 3e66 4ab7 20c8 eb3f 0000 0000 0000 0000
000000a0: 0000 0000 0000 0000 b9cc 1588 0f8c b03f
000000b0: 5cfc bdfa cdf9 cb3f 52cd 7db6 a9f6 e53f
000000c0: b7b0 99ac 2418 9b3f 519a 96ab 55a5 b83f
000000d0: 7e96 2eeb f0c4 9f3f 588f b68b aca0 a53f
000000e0: 0000 0000 0000 f03f 0000 0000 0000 0000
000000f0: 0000 0000 0000 0000 0000 0000 0000 0000
00000100: d819 5cc1 72fa e23f 0000 0000 0000 0000
00000110: 0000 0000 0000 0000 3987 3f8a b12f ba3f
00000120: ffac 54a1 7356 d3bf 0000 0000 0000 0080
00000130: a5e9 1bd3 95d9 e5bf 3158 ac4c 47cb a3bf
00000140: dd6a 2bc1 71b7 b3bf 4d7d 0f54 3150 b4bf
00000150: 88ff 0bb3 4340 b0bf 0000 0000 0000 0080
00000160: 0000 0000 0000 0080 0000 0000 0000 0080
00000170: 9283 bed2 41d0 c8bf 0e43 cbdf 3a42 96bf
00000180: cf08 044a 475a b7bf c262 7b99 ff87 cebf
00000190: 2678 6000 3e91 ccbf 629e 9798 1ccd c4bf
000001a0: 9a0b 4786 dfca b0bf 0000 0000 0000 0080
000001b0: 1f0b fe48 7687 b6bf 0000 0000 0000 0080
000001c0: 0000 0000 0000 0080 0000 0000 0000 0080
000001d0: a4da 9b27 5b6a d6bf 0000 0000 0000 0080
000001e0: e447 deb5 890d 85bf 0000 0000 0000 0080
000001f0: 856f ae89 fe6e e4bf 0000 0000 0000 0080
00000200: ac09 f0e6 702d 9bbf 0000 0000 0000 0080
00000210: 0000 0000 0000 0080 0000 0000 0000 0080
00000220: 0000 0000 0000 0080 0000 0000 0000 0080
00000230: a67b 40d6 bdb2 b7bf 62b4 c111 8b6d d9bf
00000240: 0000 0000 0000 0080 bb9f 8c21 b478 c4bf
00000250: d3aa 12ad 16cd b9bf 0000 0000 0000 0080
00000260: 0000 0000 0000 0080 0000 0000 0000 0080
00000270: f7a8 af50 eba9 a7bf 9bf6 1ed0 92d9 ccbf
00000280: 8547 b4f6 f2b1 84bf fd69 054a 6898 d7bf
00000290: 102b d858 2a5c b8bf 205e f663 f8bb e3bf
000002a0: 0000 0000 0000 0080 0000 0000 0000 0080
000002b0: 0000 0000 0000 0080 0000 0000 0000 0080
000002c0: f0cd 2f04 49ec dabf dfde 3711 042a 7fbf
000002d0: 0000 0000 0000 0080 bf89 c8cd ef3d b5bf
000002e0: 0000 0000 0000 0080 c7c0 f6e2 3200 abbf
000002f0: 0000 0000 0000 0080 0000 0000 0000 0080
00000300: c202 4f60 358b c2bf 0000 0000 0000 f0bf
00000310: 8d24 5cb3 a1bf d4bf 0000 0000 0000 0080
00000320: fa43 ff4e ba24 b0bf 0000 0000 0000 0080
00000330: 0000 0000 0000 0080 0000 0000 0000 0080
00000340: 4865 af26 dc41 a7bf 0000 0000 0000 0080
00000350: 0000 0000 0000 0080 4f59 3fbb 33c3 a6bf
00000360: a24a 2fe8 f694 d5bf 0000 0000 0000 0080
00000370: 0000 0000 0000 0080 1610 1ef5 f958 c7bf
00000380: 6861 58ed a40a c5bf 9ec8 d22a 657e a5bf
00000390: 0000 0000 0000 0080 f5f7 cd73 ffe9 d6bf
000003a0: 74aa 6c55 72d5 a7bf 0000 0000 0000 0080
000003b0: f08e 77f2 6354 95bf fa50 d3e8 032f d2bf
000003c0: 5037 29ff f57a d1bf c8d9 2664 d7dd e2bf
000003d0: 0000 0000 0000 0080 3a2a 3e11 90c1 d4bf
000003e0: 0000 0000 0000 0080 0000 0000 0000 0080
000003f0: 0000 0000 0000 0080 0000 0000 0000 0080
00000400: 0000 0000 0000 0080 e448 7687 dcf1 bebf
00000410: 1350 98d5 5c85 d0bf ff95 4671 3ac9 e3bf
00000420: a39f c20f f1a7 d6bf 8044 cef8 082f d5bf
00000430: 0000 0000 0000 0080 1436 2388 4902 d7bf
00000440: 0000 0000 0000 0080 0000 0000 0000 0080
00000450: 0000 0000 0000 0080 0000 0000 0000 0080
00000460: 0000 0000 0000 0080 b22f 4efd 85db ccbf
00000470: 0000 0000 0000 0080 7f4a 59b1 cbe7 a6bf
00000480: 0000 0000 0000 0080 a961 130d bdd4 85bf
00000490: 8912 30f9 197f ddbf 0000 0000 0000 0080
000004a0: 0000 0000 0000 0080 c989 badf c0c9 e9bf
000004b0: 0000 0000 0000 0080 7821 8138 59a8 c5bf
000004c0: 72b4 5e6e ce34 b0bf 0000 0000 0000 0080
000004d0: 0000 0000 0000 0080 534a c8da fdbf c9bf
000004e0: 0984 728e 9517 88bf 0000 0000 0000 0080
000004f0: 0000 0000 0000 0080 0000 0000 0000 0080
00000500: a5b9 e261 bc64 dfbf 0000 0000 0000 0080
00000510: 84f1 95a8 bc3d c1bf 0000 0000 0000 0080
00000520: 0000 0000 0000 0080 0000 0000 0000 0080
00000530: 0000 0000 0000 0080 8a88 ab05 d933 b2bf
00000540: fdba a317 6f69 b8bf 0000 0000 0000 0080
00000550: adbc a7db 0205 bdbf d96c 3f6d 37d1 c3bf
00000560: 0000 0000 0000 0080 352e 40a7 8a3a e5bf
00000570: b416 9450 e99b dabf 0000 0000 0000 0080
00000580: 5cb7 1afc 9148 e7bf 0000 0000 0000 0080
00000590: 0000 0000 0000 0080 0257 02bd d7f3 d5bf
000005a0: 2653 51be efd9 d0bf 0000 0000 0000 0080
000005b0: 0000 0000 0000 0080 0000 0000 0000 0080
000005c0: 0000 0000 0000 0080 0000 0000 0000 0080
000005d0: 0000 0000 0000 0080 0000 0000 0000 0080
000005e0: 0000 0000 0000 0080 1eb0 cdd9 bfd5 dfbf
000005f0: 096a d56f ee19 e1bf 0000 0000 0000 0080
00000600: 0000 0000 0000 0080 0000 0000 0000 0080
00000610: 3da3 7a9b 9a6a d5bf a4ad 40f2 5121 e7bf
00000620: badb 8620 88c3 c9bf 7f61 0f18 5978 c2bf
00000630: 0000 0000 0000 0080 0000 0000 0000 0080
00000640: b3a3 4efd aa87 cebf 2dc1 424b 879b d3bf
00000650: 6abb 484c 22fe d5bf 0000 0000 0000 0080
00000660: 0000 0000 0000 0080 11bb 3757 bda0 cfbf
00000670: 0000 0000 0000 0080 165e cff3 b2b2 c4bf
00000680: 0000 0000 0000 0080 0000 0000 0000 0080
00000690: 9b7c 7b4e e38c 80bf 0000 0000 0000 0080
000006a0: 7366 9c02 0afc d2bf 0000 0000 0000 0080
000006b0: 0000 0000 0000 0080 7830 0a2b dfbb dabf
000006c0: ec8c b996 891f c2bf 1fd0 fef6 42ab d1bf
000006d0: 0000 0000 0000 0080 d5f6 b4b6 e633 b9bf
000006e0: 79c0 3d32 f5fe c1bf a407 89e4 b6c2 87bf
000006f0: 0000 0000 0000 0080 7e4b 4438 53c0 dabf
00000700: 6d63 c8bc 07e8 b6bf 0000 0000 0000 0080
00000710: 0000 0000 0000 0080 5ec7 7f6a 426a adbf
00000720: cf30 8465 cae4 babf 491b 9ea8 f9b6 96bf
00000730: 0000 0000 0000 0080 0000 0000 0000 0080
00000740: c971 e1f5 f721 8fbf 0000 0000 0000 0080
00000750: aea2 8cd7 9857 d9bf 0000 0000 0000 0080
00000760: 1969 4128 dd65 b5bf 0f12 131d d7df c6bf
00000770: 0000 0000 0000 0080 0000 0000 0000 0080
00000780: 0000 0000 0000 0080 3d68 7052 e14e d2bf
00000790: 0000 0000 0000 0080 0000 0000 0000 0080
000007a0: 73c9 bd17 6438 bdbf 0000 0000 0000 0080
000007b0: 0000 0000 0000 0080 2314 fcb0 db20 c4bf
000007c0: 0000 0000 0000 0080 e173 9b87 ca16 dcbf
000007d0: d62a 475b 1850 cbbf 0000 0000 0000 0080
000007e0: 0ab1 9e3e 69cb d2bf 4dc5 d0a3 41a6 e0bf
000007f0: 0000 0000 0000 0080 ae2f a98d 7088 bebf
